…
i":"https://localhost:8080/"},"id":"aNCwnz_ERb5S","executionInfo":{"status":"ok","timestamp":1685430367036,"user_tz":-540,"elapsed":4534,"user":{"displayName":"KDANCING","userId":"02022149269759265972"}},"outputId":"b89a800b-9047-49cc-defa-54c2bd4fc46a"},"execution_count":9,"outputs":[{"output_type":"stream","name":"stdout","text":["Model: \"sequential\"\n","_________________________________________________________________\n"," Layer (type)                Output Shape              Param #   \n","=================================================================\n"," conv2d (Conv2D)             (None, 50, 50, 16)        448       \n","                                                                 \n"," max_pooling2d (MaxPooling2D  (None, 25, 25, 16)       0         \n"," )                                                               \n","                                                                 \n"," conv2d_1 (Conv2D)           (None, 25, 25, 32)        4640      \n","                                                                 \n"," max_pooling2d_1 (MaxPooling  (None, 13, 13, 32)       0         \n"," 2D)                                                             \n","                                                                 \n"," conv2d_2 (Conv2D)           (None, 13, 13, 64)        18496     \n","                                                                 \n"," max_pooling2d_2 (MaxPooling  (None, 7, 7, 64)         0         \n"," 2D)                                                             \n","                                                                 \n"," conv2d_3 (Conv2D)           (None, 7, 7, 64)          36928     \n","                                                                 \n"," max_pooling2d_3 (MaxPooling  (None, 4, 4, 64)         0         \n"," 2D)                                                             \n","                                                                 \n"," flatten (Flatten)           (None, 1024)              0         \n","                                                                 \n"," dropout (Dropout)           (None, 1024)              0         \n","                                                                 \n"," dense (Dense)               (None, 128)               131200    \n","                                                                 \n"," dropout_1 (Dropout)         (None, 128)               0         \n","                                                                 \n"," dense_1 (Dense)             (None, 256)               33024     \n","                                                                 \n"," dropout_2 (Dropout)         (None, 256)               0         \n","                                                                 \n"," dense_2 (Dense)             (None, 1)                 257       \n","                                                                 \n","=================================================================\n","Total params: 224,993\n","Trainable params: 224,993\n","Non-trainable params: 0\n","_________________________________________________________________\n"]}]},{"cell_type":"code","source":["model.compile(optimizer='adam', loss='binary_crossentropy', 
…
